ppo_from_scratch.pth (torch, 31435 bytes, 7 tensors)

shared.0.weight f4 [64, 36]
000000 21 86 8b 3c 4f 7d 9a 3d 05 e2 4d bb 98 2f dd 3d
       0.017031731 0.07543432 -0.0031415236 0.108000934
000010 de 78 26 bd 15 6c fc 3d 01 85 78 3d 92 19 bd 3d
       -0.04064261 0.123253025 0.060673717 0.09233393
000020 9d ea ce bb 60 e5 8a bd 8a 67 39 3e 11 4a af 3d
       -0.006314589 -0.06782031 0.18105903 0.08559049
000030 9b 53 3a 3e 2e 05 58 3d 52 31 cc bc b6 c7 43 be
       0.18195955 0.052739315 -0.024925862 -0.19119152
000040 40 2e cd bc da 7b c5 bd c9 8d 73 3d 6d 33 0b be
       -0.025046468 -0.096427634 0.05946139 -0.13593836
000050 5c 24 5a be f6 67 82 bd 2c f6 23 be 0d 9c 83 3e
       -0.21302933 -0.06367485 -0.16011876 0.25704995
000060 b5 b7 3c be 39 31 33 be e0 7f 00 be bb f7 15 be
       -0.18429454 -0.17499246 -0.1254878 -0.14645283
000070 12 a6 8a 3b 80 7e de bc 7e a0 ba 3e 77 25 07 be
       0.004231223 -0.02715993 0.3645057 -0.13197885
000080 8b 51 9d 3d f8 03 8f 3d fc ce b5 be a3 6b 90 3e
       0.07681569 0.06983179 -0.3550948 0.2820712
000090 a4 96 63 3d 8e 8c 5f 3d 0c 16 2b 3e 74 6b ea 3c
       0.055563584 0.054577403 0.16707629 0.02861569
0000a0 41 42 1e 3e 34 81 23 be a2 de 1f 3d fe 8f 02 3e
       0.15454961 -0.15967256 0.03903068 0.12750241
0000b0 a9 a2 ba 3e 5e f4 d9 3d ef db d8 3d 74 16 26 3d
       0.36452225 0.106423125 0.10588824 0.040548757
0000c0 98 27 44 3e 10 71 c8 3d 16 80 5e be 0b d5 c7 bc
       0.19155729 0.0978719 -0.21728548 -0.024393579
0000d0 f3 e8 4c be 57 44 9b 3e 84 45 09 be 24 9c fc bd
       -0.20010738 0.30325577 -0.13405424 -0.12334469
0000e0 7e 92 87 3e 46 70 8a 3d 76 1a f3 3c f2 11 ae bc
       0.26478952 0.06759696 0.029675703 -0.021248791
0000f0 79 bd 30 3d d0 9f 3e be da 54 63 3c 74 cb d1 bc
       0.043149445 -0.18615651 0.013875211 -0.02560971
000100 c2 0e 55 3d 4f 43 09 3c 03 fb f6 3e 75 2a 80 be
       0.052016027 0.008377864 0.48238382 -0.25032392
000110 ab 3a ce bd 55 d6 b3 3c 66 aa 17 3e cd 67 3b 3e
       -0.10069784 0.021952787 0.14811096 0.18301316
000120 e4 c5 79 3d 32 41 7f be f4 b4 90 be 1e b2 fe 3d
       0.06097974 -0.24927214 -0.28263056 0.12436317
000130 1a 42 32 bd e6 f5 be bc ef ac 22 3e 0f ea 37 3e
       -0.04352007 -0.023310613 0.15886281 0.1796038
000140 c5 cd 8b bd 0d 5e 2f be ec 50 cb bd df 7d 16 be
       -0.06826357 -0.17125721 -0.09927544 -0.14696454
000150 b2 54 b6 bd 47 52 96 be d0 41 40 3c 3e b1 8d be
       -0.08902873 -0.29359648 0.011734441 -0.27674288
000160 a0 41 1e be 78 52 39 3c 53 31 89 bc 98 b6 31 be
       -0.15454721 0.011311166 -0.016747152 -0.1735481
000170 f1 26 14 3e 8b 5d ff 3d 8d 44 a6 bd 52 cc 40 bb
       0.1446798 0.12469014 -0.08118544 -0.002941866
000180 6f af 99 3e 03 5b c8 be 94 7a 2c be a6 2f 3f be
       0.30016658 -0.39131936 -0.16843635 -0.1867052
000190 15 b3 d9 3b 2a b7 61 bd 83 2a c5 bd 0d db a9 be
       0.0066436627 -0.05510632 -0.09627249 -0.33174935
0001a0 3a 14 02 bd d6 fb 7d 3d 09 c9 a4 bc 66 93 99 3d
       -0.03175757 0.062007748 -0.020115392 0.07498817
0001b0 31 5f 92 be 23 5b b6 be 11 08 05 3e 70 92 49 3e
       -0.2858825 -0.35616407 0.12991358 0.19684768
0001c0 c4 d4 e4 3d 0d c2 1e 3d 30 6a 1d bc 87 1b 95 bc
       0.11173394 0.03875928 -0.009607837 -0.018201603
0001d0 d4 b3 a4 bd 7e 10 28 be 80 55 08 3d 12 51 57 3c
       -0.08042112 -0.16412541 0.033284664 0.013141887
0001e0 89 c9 21 3d 24 28 d1 3d 01 58 ff 3d 8f d5 b8 bd
       0.03949884 0.10212734 0.12467957 -0.09025108
0001f0 c7 39 22 be 9c a7 b2 bd 40 18 13 bc 1a c0 0c be
       -0.15842353 -0.08723375 -0.00897795 -0.13745156
000200 2c a3 80 3e e3 25 26 be 86 65 a2 3c a2 d6 8b 3d
       0.2512449 -0.1622539 0.0198238 0.06828047
000210 1a 51 c7 39 af 1e 6d 3e 6d cf 14 be d1 43 21 be
       0.00038016663 0.23156236 -0.14532252 -0.15748526
000220 b2 e4 76 bd 5f 68 52 bd c8 ec 82 3e 7c bb e5 bb
       -0.060276695 -0.051369067 0.25571275 -0.0070108753
000230 29 c6 28 3e dd 43 82 be 92 d9 57 bb 82 55 e7 be
       0.16481842 -0.254424 -0.0032936078 -0.45182425
000240 64 9e ad bd 05 4e e3 3b 3f 4b b4 3d 06 b7 ea 3c
       -0.08477476 0.006936791 0.088034146 0.028651726
000250 9a a0 b9 3d 2c 10 8c bd 4b 8b 42 3e 64 5e 1c bd
       0.090638354 -0.06839022 0.18998449 -0.038175955
000260 22 d6 20 be 69 01 35 bd 51 fa d7 3d e1 e7 8d be
       -0.15706685 -0.044190798 0.10545791 -0.27715972
000270 f0 e4 97 3e ff 11 65 3e 71 8a 3e 3b 7e 33 4c bc
       0.29666853 0.22370146 0.0029074217 -0.012463449
000280 df 0c 96 3e 53 0a db bd 0f 2e 6e 3d 58 a5 9a be
       0.29306695 -0.106953286 0.058149394 -0.30204272
000290 f3 be 74 3e 4d 4d c6 bc e7 cc 91 bd d7 7e 0e 3e
       0.23900966 -0.024206782 -0.0711916 0.13915573
0002a0 d1 ad 15 3d 0b 0a e1 3d ff 52 ff bd ac 4d 89 3e
       0.036542717 0.10988244 -0.12467002 0.2681707
0002b0 2e 03 6a 3d 0f 8d 21 3d ed 3c c8 bd 1f 6b 61 be
       0.05713194 0.039441165 -0.09777246 -0.2201352
0002c0 5d e6 70 be 1e 6d e9 3c 18 ca 39 3e 56 01 f0 bd
       -0.23525377 0.028494414 0.18143499 -0.11719005
0002d0 5d 4b 65 3c 58 48 2e bd 1a 10 07 3d 5f 82 82 be
       0.013995019 -0.04254946 0.03297434 -0.2549009
0002e0 51 47 cb 3d 1b 91 36 3e 35 a2 30 3e 99 07 9d bd
       0.09925712 0.17828791 0.17249377 -0.07667465
0002f0 94 3f 29 bd 15 d9 3c 3e 57 a3 b1 3b 91 0d f6 bd
       -0.0413204 0.18442185 0.005421083 -0.12014306
000300 2d fd 10 3e 3b 40 a6 3e 68 d1 04 bd 01 a3 fa 3c
       0.14159079 0.3247088 -0.032426268 0.030595304
000310 74 92 8c be 34 2d 9e 3c f9 74 e2 3d 9c ce 5f 3e
       -0.27455485 0.019308664 0.11057467 0.21856159
000320 53 22 7a bd 43 8e 5b bc 5d a7 db 3d bd 04 75 3c
       -0.06106789 -0.013400617 0.107252814 0.014954743
000330 68 eb 38 3e 3d 10 37 be ca c4 b0 bd b2 d2 07 be
       0.1805855 -0.17877288 -0.086312845 -0.13263968
000340 fa 90 da bd 4e e9 04 3e 72 04 b8 3d f2 24 6c 3e
       -0.10672183 0.12979624 0.08985223 0.23060969
000350 3a 4c d0 3c 2f 11 12 be 87 98 9f bc 0a f1 94 3e
       0.025426973 -0.14264368 -0.01948191 0.29090148
000360 bc a6 e0 3c c6 4d a7 bd 3f 47 ea 3d cf e1 1f be
       0.027423255 -0.08169131 0.1143937 -0.15613483
000370 ea 7b 58 be 9d ca 56 3d fd dd cb 3d 5c fe 0e be
       -0.2114102 0.05243932 0.0995445 -0.13964218
000380 a5 ac 08 bd d3 f4 90 3d f0 3e 99 3e 7b 7e 03 3e
       -0.03336777 0.070779465 0.2993083 0.12841217
000390 e2 d1 fd 3c 2e 19 6e be 2d bf 97 bd e4 aa 3a 3e
       0.030983869 -0.23251793 -0.07409511 0.18229252
0003a0 04 fa 09 bc f6 6a a1 3e 0c 92 1f 3e 8e 31 bd 3b
       -0.008421425 0.31526917 0.15583056 0.0057737296
0003b0 4c 52 73 3d 71 35 15 bd ea c7 05 be 83 e5 cf bd
       0.059404656 -0.03642792 -0.13064542 -0.10151198
0003c0 64 09 4a 3e d8 cd 4a be d6 45 26 bd ed 71 13 be
       0.19730145 -0.19805086 -0.040593944 -0.14398928
0003d0 48 c5 6b bd 91 60 3b be 95 02 8a bc 1b 11 84 3e
       -0.05756119 -0.18298556 -0.016846934 0.257943
0003e0 b9 5e a8 bd 11 ba b1 3d 67 7d 1d be 86 07 b0 be
       -0.08221192 0.086780675 -0.15379868 -0.3438074
0003f0 62 21 7d be 4c 62 56 bd c3 e1 a4 bd 74 2d e9 bd
       -0.24719766 -0.052339837 -0.08050873 -0.113856226

shared.0.bias f4 [64]
000000 23 02 42 bd 2b 2b 92 bd 71 43 84 be 33 96 56 be
       -0.04736532 -0.0713714 -0.25832704 -0.20955734
000010 49 27 ff bc 12 7c 80 3e 02 62 4d 3d 13 d9 2a 3e
       -0.031146662 0.25094658 0.050142296 0.1668437
000020 08 c9 79 3d f5 8c 26 3e 21 01 93 bd 37 10 0e be
       0.060982734 0.16264708 -0.0717795 -0.13873373
000030 b1 3b af bd 8c 5b ff bd 76 40 d5 3c 9a 74 4b be
       -0.08556307 -0.12468633 0.026031714 -0.19868699
000040 1a 23 bf 3d 1b 4a e2 bd 5f c5 7b 3e 72 dd 42 3e
       0.09332867 -0.11049291 0.2458701 0.19029787
000050 36 fe b6 3c a6 a9 65 3c 7b 85 8e bd a2 00 88 3d
       0.022338014 0.014017498 -0.06959053 0.06640746
000060 f8 11 7c bd 13 38 78 bd e5 6d 4f bc 36 10 33 3a
       -0.061540574 -0.06060035 -0.012660478 0.0006830724
000070 a4 19 6a be c9 93 3c 3d a2 e0 40 3e a1 5a f9 bd
       -0.22861344 0.046039376 0.1883569 -0.12175489
000080 e3 56 9a bd df 54 28 3d 82 73 72 3d 21 45 20 be
       -0.075361036 0.041096564 0.059192188 -0.1565137
000090 46 c8 c0 3d 0a 52 76 bd 79 8d 18 be 70 6f 0b bd
       0.09413199 -0.060136832 -0.14897718 -0.034041822
0000a0 e8 30 80 3d 6f d5 7f 3d 14 1e 77 3d be e3 c1 bd
       0.06259328 0.062459406 0.06033142 -0.094672665
0000b0 71 58 4d bd 87 4b 13 be 32 bf b4 bd b6 33 9f 3d
       -0.050133172 -0.1438428 -0.0882553 0.07773535
0000c0 c8 a6 40 3e 04 eb ab bd d2 08 e3 bd ac e6 a5 bd
       0.18813622 -0.08394435 -0.11085667 -0.08100638
0000d0 65 35 f0 bc e2 1f 8a 3d 3d 32 16 bd da 3e e5 3c
       -0.029322335 0.067443624 -0.036669005 0.027984072
0000e0 97 bf f6 ba 5f af 24 be e2 31 a9 3b c0 f3 0d 3c
       -0.0018825409 -0.16082524 0.005163417 0.008664072
0000f0 7c 58 79 3e 90 e9 55 3e 1c ad 84 3d 83 9a f1 3d
       0.2435016 0.20889878 0.064783305 0.11797049

shared.2.weight f4 [64, 64]
000000 0d 1f 47 bd 9c dc cc 3d bf 44 b0 3d ea e5 77 3c
       -0.048613597 0.100030154 0.08606862 0.015130499
000010 7d 3c 97 bd 5f 39 bd bd 6b bd 7e be 48 41 87 3d
       -0.07384584 -0.09239458 -0.24876945 0.06604248
000020 60 db 72 be 98 28 fc 3b b8 67 66 be 83 3a 05 be
       -0.23716497 0.007695269 -0.22500503 -0.13010602
000030 7b 53 a8 3b 59 17 f4 bd 6b 1c 88 3d b0 8c f5 bd
       0.005136905 -0.11918516 0.06646045 -0.11989725
000040 86 6b 5f 3e e9 bc 61 3e f8 7f 79 3d c9 04 1e be
       0.2181836 0.2204472 0.060913056 -0.15431513
000050 a1 69 15 3e dd d4 07 bd ad ae 1a be 56 74 47 3d
       0.14591075 -0.033161987 -0.15105696 0.04869493
000060 b4 d3 14 3d c3 1e 62 bd e1 6b 04 be 7d 84 4c be
       0.03633471 -0.055205118 -0.12931778 -0.19972415
000070 a2 ec dc 3d 2f 31 37 3e df 14 24 bc 64 12 52 be
       0.107873216 0.17889856 -0.010014742 -0.20514828
000080 86 f7 dd bd 23 96 d0 3d d6 10 08 3e 58 83 9b 3c
       -0.10838227 0.10184886 0.13287672 0.018983528
000090 f4 66 49 3d 83 f1 a5 bd ee 05 e8 3d 00 fd 0c be
       0.04917045 -0.08102705 0.11329256 -0.13768387
0000a0 d3 12 a8 be 57 5b 6c 3d 06 3c 37 be 00 2d 89 bd
       -0.32826862 0.057704296 -0.17893991 -0.06698036
0000b0 21 f9 78 3e 6e 8a 45 3c 03 72 42 be 87 9d 3e 3b
       0.24313785 0.01205693 -0.18988805 0.0029085593
0000c0 4c f9 d1 bd f0 82 43 3d 28 07 a1 bc b7 e6 b9 3c
       -0.10252628 0.047732294 -0.019656733 0.022693021
0000d0 10 57 9c be e4 29 14 bd ff 36 c2 3d 89 1d 3f 3e
       -0.30535173 -0.036172763 0.09483146 0.1866361
0000e0 50 55 b0 3d 07 4e 0c 3e 96 95 b2 bc 82 d8 93 bb
       0.08610022 0.1370164 -0.021799844 -0.0045118937
0000f0 2a 7b 77 3c 07 ca df 3d 54 64 f2 bd 88 d8 35 be
       0.015105048 0.109272055 -0.11835542 -0.17758381
000100 9b dc 90 3d 9d d7 22 bc 07 01 49 bd 34 0c 48 3e
       0.07073327 -0.0099391015 -0.049073245 0.19535905
000110 fe ae 27 3e 85 c2 82 3d d8 23 3c 3e 34 45 20 bc
       0.16375348 0.06384758 0.18373048 -0.009782124
000120 c9 7b 10 3e c8 07 bb bd 19 ce d3 3d f0 bd 92 be
       0.1410972 -0.091323435 0.103420444 -0.28660536
000130 41 cd c8 3d e0 49 fd bc a8 88 ee 3d e8 8a 3e 3e
       0.09804774 -0.030919015 0.11647159 0.18607676
000140 f5 5a 08 bc 5f 30 08 3d 77 92 5f 3d 0a d2 e8 3d
       -0.008322467 0.033249255 0.05458304 0.11368187
000150 c5 d4 5a 3e 4f ca 5c 3e ba ba f0 bd a7 4e 78 be
       0.21370228 0.2156155 -0.11754365 -0.24248753
000160 5b 9b af 3d 41 be fd 3d ab 42 00 3d 86 c8 cb bd
       0.085745536 0.12389804 0.03131358 -0.09950356
000170 5d d9 23 3e 7c 9e 97 bd 8d 5c cd 3d 1b 5f 1e 3e
       0.16000886 -0.07403275 0.10027418 0.15465967
000180 1f 77 0b bb d4 46 dd bd e8 bf 15 3e 66 40 a5 bd
       -0.0021280719 -0.10804525 0.14623988 -0.08068924
000190 e1 58 b3 3e a3 b2 f7 bd d3 ae 28 3e a4 26 87 be
       0.35028747 -0.12094619 0.1647294 -0.26396668
0001a0 18 8f 1a 3e 23 e9 fd 3d d8 70 13 be f9 13 be bd
       0.15093648 0.12397983 -0.14398515 -0.09281153
0001b0 b0 20 23 3e a0 a2 f2 bb ec 78 57 3c 62 24 d1 bd
       0.15930438 -0.0074046403 0.013151389 -0.102120176
0001c0 81 93 c6 3c 23 c5 bd bc e1 cb d7 3d e7 43 11 be
       0.024240257 -0.023165291 0.10536934 -0.14186059
0001d0 38 9e 58 3d c5 45 ae be ae 54 39 bd 73 c4 b5 3d
       0.052885264 -0.34037605 -0.045246772 0.0887536
0001e0 d0 55 41 3e 40 74 4e 3e 88 0f 73 be e8 ae 9a 3e
       0.18880391 0.20161533 -0.23736393 0.30211568
0001f0 d2 73 61 3e d0 0e d9 bd 7f 84 89 3d 2a 37 21 bc
       0.22016838 -0.105985284 0.06714725 -0.009839812
000200 45 92 a5 3d 06 3e ce 3d f8 97 ef 3c 89 83 80 3d
       0.08084539 0.10070424 0.029247269 0.06275088
000210 91 06 9d 3e 74 b8 00 bd 09 6e ec bd ad 57 c0 3c
       0.30669072 -0.03142591 -0.11544425 0.023479307
000220 dd 7e 3c be ee 37 3c bd 84 81 7a be c9 53 21 bd
       -0.1840777 -0.045951776 -0.24463469 -0.039386544
000230 3d e1 4a 3e 59 64 b5 bc 86 2a e4 3d 7a fa a2 3d
       0.19812484 -0.022142576 0.11140923 0.07957931
000240 0f ca bd 3d 16 e0 02 3d 92 a9 ab 3a 64 b4 09 be
       0.09267055 0.031951986 0.00130968 -0.1344772
000250 22 fb 6c 3d d1 11 76 3d 0c 60 3d 3d 56 21 97 3d
       0.057856686 0.060075585 0.046234176 0.07379405
000260 97 57 f8 3d 5b 8e f8 3c ad aa b5 bb c3 3f fd bb
       0.121260814 0.030341318 -0.005544028 -0.0077285483
000270 f1 33 55 bd ac 48 a5 3e 1c 83 06 bc 03 76 63 be
       -0.05205149 0.32282007 -0.00820997 -0.22212987
000280 c0 03 16 3e f1 b5 84 3e f6 c8 3f 3e e8 5b 95 be
       0.14649868 0.2592006 0.18729004 -0.2917168
000290 da bb 93 3d b2 5c 28 be 3b e7 53 3c cd a5 b6 3c
       0.07213564 -0.1644161 0.012933548 0.022295857
0002a0 2a 11 6c be c2 ed 45 3d 19 95 23 bd da a3 bd bd
       -0.23053423 0.048322447 -0.039937112 -0.09259768
0002b0 57 9e 2a 3e d2 8d 32 3e 0e 61 a6 bd f4 97 43 3d
       0.16661964 0.17436913 -0.081239805 0.047752336
0002c0 c9 06 ac 3c 9a 8e 92 bd fa 53 cb bd d9 b4 ad 3c
       0.02099933 -0.07156105 -0.09928127 0.021204399
0002d0 9c 54 c1 be 74 0d 7a 3d 8c cd 6b bd f4 a1 c7 3d
       -0.37759864 0.061047986 -0.05756907 0.09747687
0002e0 dc a9 43 bc 0a 4e 8f 3d 3d 34 ab 3d c6 e2 27 be
       -0.011942353 0.06997307 0.08359573 -0.16395101
0002f0 3b d3 db bc 5b b5 03 3e 5b 00 c5 3d 1f d9 a4 3d
       -0.026834121 0.1286215 0.096192084 0.08049225
000300 d1 d9 34 be a8 87 0f bd 91 e1 4b 3e f9 3f a8 3d
       -0.17661215 -0.03504148 0.19910266 0.08215327
000310 91 bf 11 3e 00 9f 4a bc f9 db 96 bc 0e 5f 38 3e
       0.14233233 -0.01236701 -0.018415438 0.1800501
000320 cb ef 7d 3d 5f a2 77 bd 23 fa 11 be 54 42 fa 3d
       0.061996263 -0.060457584 -0.14255576 0.12219682
000330 7e 2a b2 3d 63 a6 44 3e 49 18 a1 3d 9d 4c f4 3d
       0.08699511 0.19204096 0.0786596 0.11928675
000340 2f e1 e6 3d 92 8f 2f bd ae 17 ab bd 3c bb ac 3d
       0.11273419 -0.04286153 -0.08354126 0.084341496
000350 a2 a6 3d 3e aa 79 c1 3c ef 86 a4 3c 45 e0 40 be
       0.18520597 0.023617584 0.020083873 -0.18835552
000360 fb fc 03 be 5d 2a 64 3d a2 7a aa 3c 7c 19 c4 3c
       -0.12889473 0.055704463 0.020810429 0.023937933
000370 ae 64 9a 3e e6 07 db 3d 1d 18 0d be 89 a5 14 3e
       0.30154938 0.10694866 -0.1377873 0.14516272
000380 20 ca 57 3e 7d 12 4c 3c b7 fe 8a 3d 08 0a 98 bd
       0.21073198 0.01245558 0.06786864 -0.07423788
000390 be 2f 5f 3d 64 7d bd 3e 61 b7 81 3e 85 0f 03 3d
       0.05448889 0.37009728 0.2533522 0.031997222
0003a0 0f e2 c3 bd d5 a5 39 3c e2 39 74 be e2 71 dd 3d
       -0.09564602 0.011331041 -0.23850206 0.10812737
0003b0 31 c3 54 3d ff 6e a2 3e 7a 21 07 3d 2e 52 45 be
       0.05194396 0.31725308 0.03299091 -0.1926963
0003c0 88 f6 22 be 61 33 49 3d 7e 87 68 3e 98 2b 01 3e
       -0.15914357 0.049121264 0.22707936 0.12614286
0003d0 0d 85 73 3c fa fe 6f be e9 f7 b1 3e 11 b3 af 3d
       0.014863265 -0.2343711 0.34759453 0.08579076
0003e0 39 44 02 bc 33 0f 8f bc 36 7b 92 be 3e 07 a4 be
       -0.007950836 -0.017463302 -0.28609627 -0.32036775
0003f0 79 57 db bd 6b 66 ed bd 2b 25 29 be 26 56 cf 3c
       -0.107100435 -0.115918 -0.16518085 0.025309633

shared.2.bias f4 [64]
000000 14 6c 86 3d 1a ef 41 3d 62 05 05 3e a1 32 23 be
       0.06563583 0.047347166 0.12990335 -0.15937282
000010 58 9a ec bd 26 36 92 bd 3c 45 00 3e bf 45 e5 3d
       -0.11552876 -0.07139234 0.12526411 0.11194944
000020 a2 46 91 bc 39 72 c1 3d b9 58 5b 3d 34 63 a8 3d
       -0.017733876 0.09445614 0.05355141 0.082220465
000030 b8 77 59 3d 16 60 b0 39 1d 0d 0d 3d 82 3f 36 be
       0.05309269 0.00033640926 0.034436334 -0.17797664
000040 02 c5 4f 3d 5d a6 86 3d 5f db e6 3d 80 f2 0a be
       0.05072499 0.065747 0.112723105 -0.13569069
000050 ea 27 bd 3d 9f e8 55 3d 20 63 3e be 58 10 9c bb
       0.09236129 0.052223798 -0.185925 -0.0047626905
000060 ce 39 04 3d 6b 7e 4c 3e 3a 14 17 3e 42 a4 c5 bd
       0.03228169 0.199701 0.1475381 -0.0965047
000070 f3 86 29 be d7 61 48 3d fd 82 13 bd 9c 3f e1 bc
       -0.16555385 0.048921432 -0.036013592 -0.027496152
000080 74 05 2c 3d 4a e8 e9 bc 21 a1 3f bc 76 a3 93 bc
       0.041997388 -0.028553147 -0.011696131 -0.01802228
000090 bf 03 d6 bd 30 42 c4 bb 3a 5a 92 3d d9 16 23 3d
       -0.10449933 -0.0059893355 0.071461156 0.03981671
0000a0 8d fd b4 bd d5 7e 00 bc ea a9 e6 bb 08 d8 96 3e
       -0.088374235 -0.007842739 -0.0070392983 0.29461694
0000b0 4d 94 c4 bd 96 3a 49 bd a4 47 de 3c fa 25 c2 3d
       -0.09598599 -0.049128138 0.02713377 0.094799
0000c0 da 01 a4 bd 09 16 b1 bd f2 9a 75 bc c9 10 16 be
       -0.08008166 -0.08646781 -0.014990555 -0.1465484
0000d0 5c d5 2c 3d d9 88 17 3e 08 e7 ce bd 5d 7b b4 3d
       0.042195663 0.14798297 -0.101026595 0.08812592
0000e0 e7 8b 5e 3d 56 c5 ba 3d 43 6a c6 3d 91 ef 43 3d
       0.05433264 0.0911967 0.096882366 0.04783589
0000f0 83 dc 7a 3d f2 b3 b4 3d be 05 59 3d 86 dd ca bc
       0.061245453 0.08823384 0.05298399 -0.024763834

policy_head.weight f4 [5, 64]
000000 d0 ce fb 3d cf 81 83 bd b3 be ea 3d 20 ea ac bd
       0.12295306 -0.064212434 0.11462154 -0.08443093
000010 e7 d0 9b bc da 5a d0 bd 13 d9 0d 3d b9 9f da 3c
       -0.01902051 -0.101735786 0.034630846 0.02668749
000020 e6 5b 82 3e bf ee fa 3d 6f a8 56 be 81 ae 01 3e
       0.25460738 0.122525685 -0.2096269 0.12664224
000030 94 a7 f1 3c 58 1b 23 3d 89 a3 da bd 59 f8 cc bd
       0.029498853 0.039821 -0.10675723 -0.10008306
000040 37 bc b7 bd 88 73 38 bc cc 87 21 be e4 80 4e 3e
       -0.08971446 -0.011258014 -0.15774459 0.20166355
000050 a2 aa b8 bd 65 0d fe bd 54 8b 0e be 60 f3 ef 3d
       -0.090169206 -0.124048986 -0.13920337 0.11716342
000060 11 3e 76 3e b1 74 31 be dd f7 32 bd 19 7a 4f 3d
       0.24047114 -0.1732967 -0.043693412 0.05065355
000070 c3 bd be bd 80 42 c4 bd 03 7e 45 bc 80 05 87 bd
       -0.09313538 -0.09582996 -0.012053969 -0.06592846
000080 bf d3 36 bd bc 89 60 3d 1d 04 89 3d 03 30 0f be
       -0.04463553 0.054818854 0.06690238 -0.13983159
000090 0e 9a 74 3e b6 da 1e 3d 95 ec 2d 3e fb c1 24 3e
       0.23886892 0.038782798 0.1698478 0.16089623
0000a0 74 5e 90 bd e2 b5 98 bd e9 01 36 bd f5 ef ac 3d
       -0.070492655 -0.074565664 -0.044435415 0.08444206
0000b0 aa fe 75 bd 76 5e 99 bc a9 37 91 3d b0 0f ca 3d
       -0.06005732 -0.0187218 0.070906945 0.098662734
0000c0 66 e4 dc 3d be 53 25 3e 24 a2 81 bd 50 c7 95 bd
       0.10785751 0.16145226 -0.06329754 -0.073134065
0000d0 3d 18 a6 bd 66 13 11 3d e6 02 81 bd 1b 28 a0 3c
       -0.08110092 0.03541889 -0.06299381 0.019550374
0000e0 2a 0a fb 3d 3a c6 11 bc 46 e9 44 3e 48 df 8c bd
       0.12257798 -0.008897359 0.19229612 -0.06878525
0000f0 44 14 d7 3d 23 b4 8c bd 55 9b b3 bd 33 09 14 bc
       0.10501912 -0.06870296 -0.087698616 -0.009035396
000100 46 1a 6c 3d 1a 23 92 bd f9 6f e5 3d d4 91 55 bd
       0.057642244 -0.07135601 0.11202998 -0.052141026
000110 f5 9c 01 be 80 86 59 bd 8b 22 81 3d 5f 94 1d be
       -0.1265753 -0.053106785 0.06305417 -0.1538863
000120 b4 95 d2 3d 9b e8 03 bb b1 f6 d4 bc c4 8a 34 bd
       0.1028246 -0.0020127657 -0.025996538 -0.04407765
000130 55 c3 3f be 8d a5 c3 3d d2 5c cd bc 46 8a 07 be
       -0.18726857 0.09553061 -0.025068674 -0.13236341
000140 aa d0 93 bc 54 bd 27 3e bb e2 f4 3d d5 a9 2e 3d
       -0.018043835 0.16380817 0.11957308 0.042642433
000150 48 22 4d 3c 0e e0 97 3d c3 04 c2 3d 91 d8 8b bc
       0.01252038 0.07415782 0.094735645 -0.01707104
000160 1b 03 ac bd 8c 73 2e 3e 3c 8e 05 3e 9d 98 23 bc
       -0.0839903 0.17036265 0.1304254 -0.009985116
000170 23 2c 02 be bb 16 db 3d 77 04 83 bd 68 0b 1f 3d
       -0.1271215 0.10697695 -0.06397336 0.038829237
000180 1e a1 c5 bb 27 4c 07 3e 14 fd 1a be cc f2 b1 bb
       -0.0060311696 0.13212644 -0.15135604 -0.005430555
000190 57 9b 37 bd 51 b5 e2 3d b1 01 43 bd a0 60 58 3c
       -0.044825878 0.110697396 -0.047609035 0.013206631
0001a0 49 da 49 3e f6 d9 11 3d 53 e4 28 3c 86 e0 a0 3d
       0.19712175 0.035608254 0.010308343 0.078553244
0001b0 51 ce 0d 3e 93 fb bd bd 7a eb 5f 3d ea 63 02 be
       0.13848235 -0.092764996 0.054667927 -0.12733427
0001c0 45 b6 09 bd 92 1e 06 3c a7 68 25 be 33 41 aa 3d
       -0.03362109 0.0081859995 -0.16153203 0.08313217
0001d0 c7 91 94 3c a1 5e 16 be ef 19 eb bc a8 73 db bd
       0.018135918 -0.14684536 -0.02869889 -0.10715419
0001e0 9b e2 fc bd 07 f1 8e bd 14 5f c1 bd 31 18 0a 3e
       -0.12347909 -0.06979566 -0.09441963 0.13485791
0001f0 96 53 ed 3c ff d6 2c 3d 06 23 31 3d 54 fe 09 be
       0.028970521 0.042197224 0.04324629 -0.13475925
000200 d7 eb 05 3e e7 10 5e 3e f6 fc 05 3e 11 30 92 bd
       0.13078247 0.21686135 0.13084778 -0.07138074
000210 2b ea d4 3d b4 3e ee 3d 70 83 92 bd 48 b2 54 3e
       0.103962265 0.116330534 -0.07153976 0.20771134
000220 4e 46 4f be 22 12 42 3d f3 6b bf 3e 9d 80 95 bc
       -0.20241663 0.047380574 0.37387046 -0.018249804
000230 f5 b9 0c 3e 8e 07 e8 bd 21 75 ef 3d 09 3c 04 bc
       0.13742812 -0.11329566 0.116922624 -0.008070954
000240 7a 61 69 3d 64 80 58 be 3b 13 c9 bd a1 a9 a3 3c
       0.056977727 -0.21142727 -0.09818121 0.019978346
000250 ae c3 37 3d 2b b9 10 3e 69 3a b4 bc 3d a5 37 be
       0.04486435 0.14133136 -0.022000508 -0.17934127
000260 38 09 01 3d 59 96 19 3d 38 cc 02 be 52 61 ee 39
       0.031502932 0.0374969 -0.12773216 0.00045467407
000270 a3 ec a3 3d bc 73 a2 bc bf e0 24 be ce 13 b5 bd
       0.08004119 -0.019830577 -0.16101359 -0.08841668
000280 85 7a f5 bd 44 fc cf bd 61 38 35 bd fa b3 b5 bd
       -0.11986259 -0.10155538 -0.04424322 -0.088722184
000290 80 6b de bd f2 eb 80 3d 57 5a 49 3e c8 20 9c 3c
       -0.10860348 0.06295003 0.19663368 0.0190586
0002a0 24 21 ba bd 61 14 81 bc 76 c5 20 3e a5 9d a0 3d
       -0.09088352 -0.015756788 0.15700325 0.07842568
0002b0 9e 62 96 bd ce 59 3c bc 2e 0f 18 3d cb c5 73 3d
       -0.073430285 -0.0114960205 0.03712385 0.059514802
0002c0 f5 2f dd bd e4 ae 98 bd 85 62 6d 3d 97 89 8c 3d
       -0.10800163 -0.07455233 0.057955284 0.06862181
0002d0 81 fa 1d be 7c 44 0e 3e 81 d0 08 3e 74 33 38 3e
       -0.15427591 0.13893312 0.13360788 0.17988378
0002e0 2c 3d 95 bd 1e e3 d2 bc 06 75 08 3e 74 c5 40 3d
       -0.07287058 -0.025743064 0.13325891 0.047063306
0002f0 07 6a 71 bd ce 25 12 bc e5 86 00 3e f7 c9 37 bd
       -0.058939006 -0.008920146 0.12551458 -0.044870343
000300 3f 44 d8 3d 7a fa 05 be 99 98 af 3c 50 e8 de bc
       0.10559892 -0.1308383 0.021435069 -0.027210385
000310 56 fd d1 bd b5 7c 66 bc 8f 8e 29 bc de 86 58 be
       -0.10253398 -0.014067818 -0.01034893 -0.21145198
000320 12 4a d1 bb 1e c5 d0 bc ef 43 a9 3d 81 d7 b2 3d
       -0.0063870037 -0.025484618 0.082649104 0.0873251
000330 9a e1 10 be b7 9d 0a bd b1 a0 fd 3d 4c 88 0e bc
       -0.1414856 -0.033841815 0.12384165 -0.008699488
000340 ca 47 4e 3e 12 ba 07 3d ab 63 b4 3d 3d ce 08 be
       0.20144573 0.033136435 0.08808073 -0.13359924
000350 0c 01 f7 3d 2a 55 83 bd 92 68 9c bd 5f 22 4e 3e
       0.120607466 -0.06412728 -0.07637133 0.20130299
000360 15 1b b0 3d af 16 4c be c0 2c dc bc e5 cb f6 3d
       0.085989155 -0.19930528 -0.026876807 0.120506085
000370 2b 1b 04 3d a9 fa 3a be fe 22 5a bd 27 d5 b9 bd
       0.032252472 -0.18259682 -0.053256027 -0.09073859
000380 6f 17 0e 3e 08 55 43 3e c5 89 c6 bd 0a df fe bd
       0.13876127 0.19075406 -0.09694246 -0.12444885
000390 a4 a4 a6 3d 8f 6f 56 be 52 56 b5 3d da 54 7f 3d
       0.081368715 -0.20940994 0.08854355 0.06233678
0003a0 bd 0e 8d bd c1 57 9f 3c 94 e1 97 3d 5b 99 a5 3d
       -0.06887577 0.019451024 0.074160725 0.08085891
0003b0 50 8e 1d 3d 54 03 cc 3d 08 9b 4f 3d 4c 5c 1e 3e
       0.038465798 0.09961572 0.05068496 0.15464896
0003c0 c4 2f 04 3e 3b 0a 54 bd 49 e6 a2 bd c3 c8 47 bd
       0.12908846 -0.05176757 -0.0795408 -0.048775446
0003d0 3a c2 ba bd a7 03 05 be 40 10 4e 3b 43 c7 17 3b
       -0.09119077 -0.12989675 0.0031442791 0.002315954
0003e0 82 7a c2 3d b9 e6 fa 3d 49 12 33 3d d0 41 78 bd
       0.09496023 0.12251038 0.04371861 -0.06060964
0003f0 00 d9 98 3d ec 22 2a 3d 3f df 2b 3d 6a cb 2b 3c
       0.074632645 0.04153721 0.04196095 0.010485509

policy_head.bias f4 [5]
000000 6a 19 43 bd c0 76 f2 3d 6f 84 74 3d 23 13 fd 3b
       -0.04763166 0.11839056 0.05969661 0.0077232285
000010 79 54 34 be
       -0.17610349

value_head.weight f4 [1, 64]
000000 04 05 75 be 76 f5 76 3e d5 0d 54 be 38 d5 69 be
       -0.23927695 0.24117073 -0.20708402 -0.22835243
000010 1b 69 82 3e 69 b7 6b be c1 5c a1 3e 13 67 74 3d
       0.25470814 -0.23019184 0.31516078 0.05966861
000020 ee 67 45 3e 5d a2 16 3e 53 2c 65 3d 89 cf 36 3e
       0.19277927 0.14710374 0.055950474 0.17852606
000030 a9 a9 4c 3d 9c 8a 4c be e6 f7 23 be 2a b8 1c be
       0.049966488 -0.1997475 -0.16012534 -0.15304628
000040 e2 46 c5 3d cb 78 4f 3e ee 13 fd 3d ad 1d c5 3d
       0.096326604 0.20260923 0.12357317 0.09624801
000050 d7 d0 92 3e 30 57 37 3e 9c 29 50 be 47 57 17 3e
       0.28674957 0.17904353 -0.20328373 0.14779387
000060 78 62 90 be 0f 84 52 3e d0 e8 b6 be f6 33 0c be
       -0.28200126 0.20558189 -0.35724497 -0.13691697
000070 ac 6d e1 bd 0f d3 92 be c3 67 92 be f3 aa 78 be
       -0.110072464 -0.2867665 -0.2859479 -0.24283962
000080 d4 2b a4 be 80 46 66 3e 4d ff 58 be a9 8a b5 be
       -0.32064688 0.22487831 -0.2119114 -0.35457352
000090 5f 71 1a be 75 07 69 be 6c 73 da bd 7e 66 90 3e
       -0.1508231 -0.22756751 -0.10666546 0.28203195
0000a0 99 b8 a0 be 70 68 91 be 1c 6f 81 3d 4f 50 5d 3e
       -0.31390837 -0.28399992 0.063200206 0.21612667
0000b0 1a 9a 9e be ca 75 dc 3d 72 03 9e 3e e0 ed 3d be
       -0.30976945 0.10764654 0.30862004 -0.18547773
0000c0 74 df 87 be 5c 0c 73 3e bb 6a b6 3e 5a 3c 3d be
       -0.2653767 0.23735183 0.35628304 -0.18480054
0000d0 d6 72 bf be 30 8b 7b 3e 6f 36 83 be 1c 06 71 be
       -0.373923 0.24564815 -0.25627467 -0.23537487
0000e0 24 39 54 3e b3 ff 85 3e de 55 34 3e 74 0e 79 be
       0.20724922 0.26171646 0.1761088 -0.2432192
0000f0 a9 d5 9e 3e 17 bc 70 3e 42 79 8b 3e 23 ea d4 bd
       0.31022385 0.2350925 0.2724095 -0.103962205
